best_model.pth (torch, 346914 bytes, 44 tensors)

odeblock.odefunc.diffusion.0.weight f4 [64, 64]
-0.05217057 -0.072843924 0.01465527 -0.08167388 -0.026871128 0.054424085 0.05553169 0.01955197
0.058971245 0.003260915 -0.0810035 0.061976448 -0.061805177 0.059845544 -0.02226733 -0.033332985
0.009656139 0.10648885 0.008247412 -0.04372923 0.059024997 -0.04372661 0.08668005 -0.044543043
0.007142593 -0.07664816 -0.07731605 0.036766622 -0.007903719 0.00066033314 0.0158367 0.059749555
-0.051542312 0.010806577 0.059550058 0.03303231 0.10938741 -0.09329195 0.11170938 -0.05922493
0.013407934 0.136127 -0.0025663762 0.046734992 0.052837126 -0.08371922 0.043843705 -0.013873905
-0.0040359832 0.10617731 -0.025356255 0.0075406837 0.045356233 0.012389084 0.057352833 0.10565509
-0.091795154 0.039155204 -0.0101341 -0.06491214 -0.08815351 0.052272968 0.00012089082 0.032404553
0.032320462 0.031164192 -0.038667608 -0.019139599 -0.11939516 -0.03819913 -0.03874278 -0.039574932
-0.0006665774 -0.025122691 0.06736186 -0.010451232 0.082423255 -0.059715644 -0.12051568 0.1077408
0.0074389596 0.042421125 -0.01917718 0.022832513 -0.0075901244 0.010304637 0.05614913 0.001262234
0.049111567 -0.014323452 0.04021919 0.071308315 -0.015951475 0.006035501 -0.0022160995 0.04316963
0.034816694 0.059568077 -0.032924265 0.005263783 -0.020994302 0.08866869 -0.04953798 -0.080069065
-0.0053108595 -0.018113619 -0.011123145 -0.061290525 -0.03764891 -0.030098885 0.026646176 0.0036489996
0.058597647 -0.104885876 -0.014501372 -0.0014170415 -0.02632493 -0.07844948 -0.011438124 -0.03243896
-0.059959576 0.09811408 -0.09645426 0.008510885 0.079081506 -0.011270065 -0.08039677 -0.051052622
-0.060579408 -0.021360556 -0.09807218 -0.07904319 0.08613184 -0.052436456 0.0633874 -0.055471774
0.025331058 0.11744049 -0.029437883 -0.021994196 -0.044984907 -0.018583022 0.017958729 -0.057336763
-0.057677127 0.08549132 0.045334674 -0.100178964 0.06703193 -0.09676406 0.06175672 -0.10027335
-0.062154632 -0.036057267 -0.014891139 -0.056452163 0.031423017 0.056974366 0.06184006 0.013801253
0.08510753 0.0065942816 0.04475052 -0.06538949 -0.0048686187 0.07842542 0.02242852 0.09027983
-0.0024546187 -0.01056326 0.10688906 0.06943564 -0.08726941 0.07343742 0.040230375 -0.06280837
0.056640703 0.12916431 0.0516479 -0.093929395 -0.053961497 0.005392043 0.10838394 -0.006277561
0.05190719 0.08437277 -0.109944254 -0.02630788 0.06346602 -0.044921096 0.098656654 -0.05593558
0.051768754 0.00795246 0.027083026 -0.057689622 0.08296138 -0.021587431 -0.09346507 0.036422413
0.03297102 0.0033252805 0.02122529 0.055439305 -0.006311085 -0.01277164 0.075594686 0.00516816
0.051564977 0.005719883 -0.08148969 0.06576078 -0.08455752 -0.041576594 -0.038760815 -0.041598305
0.022245081 0.0711613 0.06104408 0.06935535 0.06664239 -0.053967245 -0.06482598 0.012872144
0.0017889985 0.010128576 -0.09596042 0.038967676 -0.07895121 -0.04545721 -0.0034608464 -0.11034597
0.058850553 -0.010326495 0.033051934 -0.00036287645 -0.060934998 0.05680112 0.057840932 0.017506802
0.055604186 -0.1285237 0.057670627 0.047417574 -0.011265402 0.078090325 0.030317932 -0.025099581
0.10301767 -0.036506463 -0.019335646 0.03575657 -0.06501745 -0.0097829355 -0.015566059 0.008963493
00000000: cfb0 55bd 322f 95bd a81c 703c a344 a7bd
00000010: d720 dcbc caeb 5e3d 3375 633d 742b a03c
00000020: d58b 713d 13b5 553b 2ae5 a5bd 04db 7d3d
00000030: 6d27 7dbd 9a20 753d fa69 b6bc 2b88 08bd
00000040: c834 1e3c d416 da3d 2720 073c 6c1d 33bd
00000050: 32c4 713d ac1a 33bd 4f85 b13d c472 36bd
00000060: 6a0c ea3b b6f9 9cbd e157 9ebd 9998 163d
00000070: 9a7e 01bc 351a 2d3a f8bb 813c f3bb 743d
00000080: 081e 53bd 120e 313c c3ea 733d e34c 073d
00000090: 8206 e03d da0f bfbd e3c7 e43d d795 72bd
000000a0: f4ac 5b3c e064 0b3e a630 28bb 316d 3f3d
000000b0: be6b 583d fb74 abbd 7595 333d 604f 63bc
000000c0: 4840 84bb 7d73 d93d ecb7 cfbc d717 f73b
000000d0: 75c7 393d 96fb 4a3c ceea 6a3d b261 d83d
000000e0: 19ff bbbd 3561 203d 7f09 26bc a8f0 84bd
000000f0: d489 b4bd 2e1c 563d c486 fd38 a3ba 043d
00000100: 7662 043d 0c4c ff3c ed61 1ebd a6ca 9cbc
00000110: 7385 f4bd b176 1cbd c0b0 1ebd 5319 22bd
00000120: 41bd 2eba 1ace cdbc 04f5 893d a53b 2bbc
00000130: 86cd a83d 6498 74bd edd0 f6bd 35a7 dc3d
00000140: 84c2 f33b c6c1 2d3d 7619 9dbc 400b bb3c
00000150: 94b6 f8bb c8d4 283c a1fc 653d 8b71 a53a
00000160: 3629 493d e9ac 6abc e1bc 243d 180a 923d
00000170: abac 82bc 74c5 c53b fb3b 11bb a3d2 303d
00000180: f39b 0e3d a8fd 733d 98db 06bd d07b ac3b
00000190: 3efc abbc ee97 b53d 56e8 4abd 40fb a3bd
000001a0: b806 aebb 0363 94bc da3d 36bc c60b 7bbd
000001b0: be35 1abd f091 f6bc 1549 da3c 0e24 6f3b
000001c0: 1604 703d 68ce d6bd 2a97 6dbc 06bc b9ba
000001d0: 61a7 d7bc 1faa a0bd f866 3bbc b7de 04bd
000001e0: 2c98 75bd 09f0 c83d d089 c5bd 3d71 0b3c
000001f0: 7cf5 a13d 14a6 38bc 10a7 a4bd 8e1c 51bd
00000200: 1d22 78bd 55fc aebc 11da c8bd 65e1 a1bd
00000210: e465 b03d 9cc7 56bd 41d1 813d 5f36 63bd
00000220: 1483 cf3c a484 f03d b727 f1bc 2c2d b4bc
00000230: 1842 38bd 6c3b 98bc 2f1e 933c f4d9 6abd
00000240: da3e 6cbd 1316 af3d dab0 393d a12a cdbd
00000250: 0948 893d 3c2c c6bd 9df4 7c3d 1d5c cdbd
00000260: db95 7ebd c9b0 13bd f7f9 73bc 623a 67bd
00000270: 6cb5 003d f45d 693d 014c 7d3d a71e 623c
00000280: db4c ae3d d814 d83b 524c 373d edea 85bd
00000290: ef88 9fbb 829d a03d 04bc b73c a2e4 b83d
000002a0: abdd 20bb 8611 2dbc a7e8 da3d 4634 8e3d
000002b0: 4eba b2bd 5c66 963d 9bc8 243d ada1 80bd
000002c0: 1500 683d a643 043e c08c 533d 0e5e c0bd
000002d0: bb06 5dbd bcaf b03b 66f8 dd3d 00b4 cdbb
000002e0: a29c 543d a1cb ac3d 742a e1bd a083 d7bc
000002f0: 79fa 813d 2fff 37bd 800c ca3d b51c 65bd
00000300: 790b 543d 094b 023c 39dd dd3c f44b 6cbd
00000310: a8e7 a93d 20d8 b0bc 9d6a bfbd ab2f 153d
00000320: 9f0c 073d f3ec 593b a9e0 ad3c 5314 633d
00000330: 38cd cebb 2440 51bc 63d1 9a3d ab59 a93b
00000340: cc35 533d db6d bb3b 11e4 a6bd 96ad 863d
00000350: 7e2c adbd 384c 2abd a9c3 1ebd fc62 2abd
00000360: 513b b63c 04bd 913d 5b09 7a3d 2e0a 8e3d
00000370: ce7b 883d c20c 5dbd 7cc3 84bd afe5 523c
00000380: d47c ea3a 54f2 253c e686 c4bd 929c 1f3d
00000390: 2cb1 a1bd 5731 3abd 5ecf 62bb 11fd e1bd
000003a0: 470d 713d 7630 29bc 7761 073d 7440 beb9
000003b0: fa96 79bd 4ba8 683d 9dea 6c3d 6d6a 8f3c
000003c0: 37c1 633d b89b 03be 0938 6c3d ee38 423d
000003d0: 8592 38bc d2ed 9f3d 505d f83c a39d cdbc
000003e0: eefa d23d cd87 15bd ca65 9ebc 7b75 123d
000003f0: de27 85bd 9b48 20bc c908 7fbc 9ddb 123c

odeblock.odefunc.diffusion.0.bias f4 [64]
-0.112164624 -0.10102274 0.07811828 -0.06961958 -0.058924094 0.10389931 0.08400185 0.08196132
0.09698266 0.023112576 -0.05907474 -0.06691388 -0.019464789 -0.09951138 0.022515088 0.10070574
-0.10563883 0.014251882 -0.0889048 0.09647893 0.04236762 0.103179775 0.062481757 0.11335104
0.021963269 0.13722317 0.021844365 0.0055341315 0.080930576 0.05905316 -0.0126202535 -0.05499492
-0.014424708 0.052603032 0.03939135 -0.08469497 0.067096844 0.088715844 0.09718279 -0.06752795
-0.01224733 -0.022408886 -0.061203998 0.055454522 0.05140702 0.039767154 0.04056101 0.07853894
0.014947117 0.013024126 -0.045296155 -0.030099494 0.08680616 -0.01150767 -0.0044599804 0.014162818
0.029399754 -0.06607521 0.04529628 0.07726007 -0.06786158 -0.009550406 0.07870817 0.07874753
00000000: 91b6 e5bd 03e5 cebd 7afc 9f3d b694 8ebd
00000010: 645a 71bd 29c9 d43d 2909 ac3d 56db a73d
00000020: d89e c63d 9656 bd3c 5bf8 71bd 250a 89bd
00000030: 9f74 9fbc 9fcc cbbd 9071 b83c d03e ce3d
00000040: 2c59 d8bd ba80 693c b813 b6bd bf96 c53d
00000050: ab89 2d3d eb4f d33d dfec 7f3d 9724 e83d
00000060: 50ec b33c 3b84 0c3e f4f2 b23c a957 b53b
00000070: eebe a53d bae1 713d 2ec5 4ebc 5a42 61bd
00000080: 9c55 6cbc 4776 573d d358 213d 8e74 adbd
00000090: 126a 893d a7b0 b53d c507 c73d 184c 8abd
000000a0: 06a9 48bc d792 b7bc 0bb1 7abd 4824 633d
000000b0: 2b90 523d e2e2 223d 4d23 263d 06d9 a03d
000000c0: c1e4 743c 2563 553c 7688 39bd 3793 f6bc
000000d0: 6ec7 b13d ab8a 3cbc 0725 92bb 2a0b 683c
000000e0: c1d7 f03c 7152 87bd 9888 393d 873a 9e3d
000000f0: 03fb 8abd 4e79 1cbc c031 a13d 6346 a13d

odeblock.odefunc.diffusion.2.weight f4 [64, 64]
0.037200168 -0.04232566 -0.06830197 0.012983773 0.02546407 -0.025959132 -0.031801257 -0.01843136
0.028947935 0.030078487 0.07400413 0.10363224 0.09946501 0.03801473 -0.023613898 -0.10545301
-0.047680125 0.04434667 -0.067417406 -0.049992643 -0.06312823 0.044469386 -0.0077424943 -0.050472595
0.11050755 -0.09545694 0.12287859 0.0013774587 -0.067843586 0.04712465 0.030980801 -0.06623296
0.009912875 -0.12362191 -0.0086539 0.01509384 -0.057749975 -0.015989404 -0.009339739 0.01578488
0.053402483 0.09118493 0.12664346 -0.0022973537 0.0002318332 -0.047145084 -0.079117 -0.11678553
0.0072241793 -0.011522625 0.10939143 0.093779325 -0.033164702 0.04204615 0.02301314 -0.016682433
-0.049164157 0.055063702 -0.047238883 0.013688451 0.07418746 -0.027476856 0.036240023 -0.06950108
0.0635002 -0.06744742 -0.023699626 -0.113545254 0.025710769 0.071008705 0.065579936 -0.02701276
0.035768975 -0.008647774 0.0018532118 0.050139315 0.03169744 -0.06834291 -0.014157575 0.10733212
-0.017974079 -0.06227411 -0.0067393947 0.094107665 -0.06480017 0.03158786 0.056936342 -0.052004527
-0.041004814 0.029266665 0.010769102 -0.07283192 -0.050275426 -0.07761178 -0.031554393 -0.06643199
0.018546622 -0.0970802 -0.016658239 -0.012696859 -0.063079 0.06566402 -0.011813495 -0.0770526
0.0040483307 -0.011421726 0.05201847 0.07456962 -0.06586028 0.046881072 0.03507256 -0.02554439
0.10140743 -0.04536046 -0.03732002 -0.047468126 0.11237522 0.004769345 -0.049737744 -0.008819494
-0.021785472 0.09398537 -0.06610357 -0.020736294 0.00565532 -0.080165714 0.06052929 -0.062150452
0.008138605 -0.0780124 -0.06619943 -0.057554364 0.04698426 0.035985574 0.018623285 0.08715504
-0.1382596 0.05479436 -0.043401297 0.08682019 0.03452663 0.07069302 -0.0374496 -0.08607411
0.045214333 0.13223468 -0.062290233 0.041070174 -0.01839777 -0.10123926 0.14357 -0.11625691
0.10983456 -0.056624327 0.14057969 0.034796126 0.0013694023 0.017033901 0.003724885 0.04550291
-0.002840125 -0.13255504 -0.07014792 -0.035094827 -0.04720166 0.06878542 -0.05306051 0.010609128
0.07616832 0.007763082 0.029763345 0.017740285 0.078804545 -0.018838126 -0.10909313 0.008700985
0.0374233 0.09707227 0.10154009 -0.008583619 -0.011063227 0.04088414 -0.12218734 0.09219598
0.11867801 -0.017885318 -0.038039915 -0.03978901 -0.0725746 -0.023502603 0.012105938 -0.013240383
-0.1473416 -0.06407366 -0.094618574 -0.060311936 -0.073945776 0.14969634 0.011682655 0.065417446
0.016643843 -0.06778208 -0.029372396 -0.049154468 0.022806142 0.054535143 -0.043004103 0.11029455
-0.0039035052 -0.06626923 0.024001015 -0.075105995 0.007916637 0.08509309 -0.01321837 0.042267665
-0.16376996 0.04625296 -0.039534077 -0.015005612 0.034131233 0.01430473 -0.007498899 0.038707685
0.008050248 0.1312629 0.014361767 0.062891036 0.10523024 -0.084588245 0.1486976 0.07652714
-0.077114046 -0.11147852 -0.04529371 0.072087415 -0.053754587 0.04508309 0.0025187698 -0.06115519
0.021755641 0.01518721 -0.028560419 0.054226313 0.010967075 -0.046295952 -0.05577189 -0.09529275
-0.010197004 0.08810194 -0.050510786 0.07839825 -0.0423345 0.0455534 0.092583045 0.04839534
00000000: 345f 183d ac5d 2dbd e7e1 8bbd e4b9 543c
00000010: 069a d03c 3fa8 d4bc 0942 02bd 5dfd 96bc
00000020: 3824 ed3c 2967 f63c 7a8f 973d 243d d43d
00000030: 50b4 cb3d 55b5 1b3d ef71 c1bc bff7 d7bd
00000040: 3c4c 43bd dba4 353d 2312 8abd 16c5 4cbd
00000050: 6049 81bd 8825 363d c0b4 fdbb 5abc 4ebd
00000060: c851 e23d ee7e c3bd c5a7 fb3d d88b b43a
00000070: 94f1 8abd c705 413d 73cb fd3c 25a5 87bd
00000080: 9c69 223c 7c2d fdbd 16c9 0dbc 274c 773c
00000090: 3d8b 6cbd 36fc 82bc b405 19bc 4b4f 813c
000000a0: 90bc 5a3d 2abf ba3d d3ae 013e 338f 16bb
000000b0: 4018 7339 341b 41bd 1808 a2bd 402d efbd
000000c0: cfb8 ec3b 64c9 3cbc 9d08 e03d 600f c03d
000000d0: b6d7 07bd 9538 2c3d 0d86 bc3c 99a9 88bc
000000e0: 5b60 49bd 7a8a 613d 8f7d 41bd 8645 603c
000000f0: 98ef 973d 2517 e1bc 6b70 143d 9556 8ebd
00000100: 650c 823d df21 8abd b825 c2bc 6a8a e8bd
00000110: 649f d23c 036d 913d c64e 863d dd49 ddbc
00000120: 7d82 123d 65af 0dbc 78e7 f23a e25e 4d3d
00000130: 2dd5 013d 5ef7 8bbd 2cf5 67bc f1d0 db3d
00000140: 603e 93bc 2313 7fbd 24d6 dcbb 85bb c03d
00000150: f4b5 84bd 4662 013d 1536 693d b302 55bd
00000160: aaf4 27bd a5c0 ef3c e370 303c e728 95bd
00000170: 9bed 4dbd edf2 9ebd 2e3f 01bd 7f0d 88bd
00000180: 16ef 973c fcd1 c6bd dc76 88bc 7d06 50bc
00000190: 902f 81bd dc7a 863d 648d 41bc c1cd 9dbd
000001a0: dca7 843b 3122 3bbc 5211 553d f5b7 983d
000001b0: c1e1 86bd 5e06 403d 3fa8 0f3d 7842 d1bc
000001c0: b3ae cf3d e4cb 39bd e1dc 18bd f06d 42bd
000001d0: fb24 e63d 2a48 9c3b ceb9 4bbd a47f 10bc
000001e0: 7277 b2bc 677b c03d 4f61 87bd 29df a9bc
000001f0: 4350 b93b ec2d a4bd 90ed 773d 7991 7ebd
00000200: c957 053c f7c4 9fbd 9193 87bd 20be 6bbd
00000210: 9172 403d 9c65 133d dc8f 983c 577e b23d
00000220: ed93 0dbe 0d70 603d 8fc5 31bd c9ce b13d
00000230: cc6b 0d3d 81c7 903d c064 19bd 9f47 b0bd
00000240: aa32 393d 8768 073e 0b24 7fbd 3339 283d
00000250: ecb6 96bc 8756 cfbd 0404 133e 1a18 eebd
00000260: f1f0 e03d e9ee 67bd 1ff4 0f3e 6286 0e3d
00000270: 847d b33a ae8a 8b3c 331d 743b 4261 3a3d
00000280: 6421 3abb 82bc 07be b6a9 8fbd 98bf 0fbd
00000290: 8756 41bd 5fdf 8c3d fa55 59bd e8d1 2d3c
000002a0: 23fe 9b3d 7461 fe3b 42d2 f33c 1354 913c
000002b0: 4764 a13d 6a52 9abc 386c dfbd 948e 0e3c
000002c0: 2d49 193d d4cd c63d 40f4 cf3d 4fa2 0cbc
000002d0: 8a42 35bc 2176 273d 5b3d fabd 3fd1 bc3d
000002e0: 750d f33d 3b84 92bc becf 1bbd cdf9 22bd
000002f0: fea1 94bd 8888 c0bc fc57 463c 31ee 58bc
00000300: b7e0 16be 0d39 83bd 62c7 c1bd a609 77bd
00000310: e270 97bd ff49 193e 9b68 3f3c 95f9 853d
00000320: ab58 883c 55d1 8abd 619e f0bc 3256 49bd
00000330: f2d3 ba3c 3e60 5f3d 1225 30bd 1ce2 e13d
00000340: f3d1 7fbb 29b8 87bd c79d c43c 2cd1 99bd
00000350: c8b4 013c 4945 ae3d dd91 58bc dc20 2d3d
00000360: 50b3 27be be73 3d3d 7cee 21bd 19da 75bc
00000370: 31cd 0b3d 635e 6a3c 53b9 f5bb f38b 1e3d
00000380: 30e5 033c c869 063e 9e4d 6b3c 04cd 803d
00000390: f482 d73d 9a3c adbd 2f44 183e 43ba 9c3d
000003a0: f8ed 9dbd da4e e4bd e685 39bd 91a2 933d
000003b0: c52d 5cbd 0ca9 383d f211 253b dd7d 7abd
000003c0: e338 b23c c7d3 783c 8af7 e9bc 691c 5e3d
000003d0: 3faf 333c d3a0 3dbd 1171 64bd d828 c3bd
000003e0: 5611 27bc ca6e b43d 66e4 4ebd 438f a03d
000003f0: f166 2dbd 3496 3a3d 2e9c bd3d 313a 463d

odeblock.odefunc.diffusion.2.bias f4 [64]
0.030000808 0.06528999 -0.12582003 -0.06916832 0.05788824 -0.02486717 0.07794946 -0.01532366
-0.0125370575 -0.02767172 -0.093856946 -0.047144275 0.11586955 0.07892051 -0.059011534 -0.049127568
0.035131484 -0.12920493 -0.07775047 -0.058514077 -0.02506033 -0.084482834 -0.08272352 -0.052397218
-0.13383102 -0.012813047 0.14268333 -0.11969337 -0.055132203 -0.0053123827 0.032979764 -0.031895697
-0.07977458 -0.05067117 0.10998056 -0.023484018 -0.022951096 0.004869876 0.040610656 0.032646306
-0.057309974 0.008016136 -0.036541197 -0.08184151 0.06267586 -0.09001497 0.08639233 0.023573482
0.031599008 0.042826463 0.10589649 -0.094674274 0.12676726 -0.041946117 -0.09029209 0.039859544
0.09254916 0.08245163 0.020381322 -0.086893715 0.07686861 0.08052824 -0.08078266 -0.08483595
00000000: 41c4 f53c c2b6 853d f7d6 00be 1fa8 8dbd
00000010: 381c 6d3d 3cb6 cbbc f7a3 9f3d 1710 7bbc
00000020: 3b68 4dbc ceaf e2bc 1238 c0bd 5b1a 41bd
00000030: 044d ed3d 14a1 a13d 14b6 71bd fd39 49bd
00000040: 08e6 0f3d 4c4e 04be a33b 9fbd 75ac 6fbd
00000050: 524b cdbc 5605 adbd f36a a9bd 779e 56bd
00000060: 000b 09be d0ed 51bc 941b 123e cc21 f5bd
00000070: 4ed2 61bd 7f13 aebb ca15 073d 10a5 02bd
00000080: db60 a3bd 938c 4fbd 7d3d e13d 8e61 c0bc
00000090: f003 bcbc 7b93 9f3b 5c57 263d 22b8 053d
000000a0: ddbd 6abd 1c56 033c 39ac 15bd 869c a7bd
000000b0: 345c 803d c559 b8bd 76ee b03d 2d1d c13c
000000c0: f66d 013d cd6a 2f3d 42e0 d83d 96e4 c1bd
000000d0: 47cf 013e b1cf 2bbd 0feb b8bd c343 233d
000000e0: 6a8a bd3d 66dc a83d bbf6 a63c 55f5 b1bd
000000f0: 4a6d 9d3d fdeb a43d 6171 a5bd 78be adbd

odeblock.odefunc.attention.0.weight f4 [64, 129]
-0.023257058 -0.0040348577 0.015764544 0.023213703 0.0057498743 0.036191266 -0.02290202 -0.015604859
-0.01213018 0.009515188 0.025575342 -0.024671067 -0.050962348 -0.00031620334 -0.016272046 -0.01881154
-0.013129506 -0.0067052594 -0.0030767655 0.027044684 -0.035764847 -0.014966991 0.0072739283 -0.0035706977
0.01576669 -0.0012366889 -0.0048362054 -0.021709347 -0.02500002 -0.016386112 0.04328577 0.013475647
-0.0030094883 0.01674923 -0.005820947 0.008165251 -0.009312196 0.010567156 0.016770996 -0.00025410263
-0.033218957 -0.008823908 0.0508644 -0.005629395 0.018004887 -0.022610176 -0.0454592 -0.00901757
-0.023959516 -0.015062802 -0.02950797 0.026350128 -0.019909779 0.0030019274 0.020903442 -0.0060644746
0.04051875 0.035869684 0.0012227583 -0.02792707 -0.00787154 0.0041243457 0.0005887191 -0.007558292
0.0016186582 0.035067447 -0.029103098 0.007853195 -0.006641499 -0.014146249 -0.00013439325 0.01788342
-0.012521098 0.015581594 -0.0021514671 -0.05542977 -0.008044411 -0.025391031 0.029621761 0.0069182403
-0.037998773 -0.020436764 -0.008880802 0.03840981 -0.002162329 0.016196454 -0.012454552 -0.050455417
0.0111109195 0.0049409205 -0.013092531 -0.04119441 -0.00097477925 -0.013504643 0.0074270363 0.005594696
-0.029834433 -0.043630987 0.042726815 -0.0071021197 -0.044099946 0.0012178189 -0.010053007 -0.005506317
-0.011686887 0.029386725 -0.0067200377 -0.023674618 -0.03348117 -0.045226265 0.013331588 -0.040976238
-0.0066515934 0.03529528 0.03004929 0.031385116 -0.011486054 -0.009243385 0.01114397 -0.021756371
0.046745062 0.018453272 0.017830182 0.00022274806 0.0005405179 0.0479799 0.0026673127 -0.015812064
-0.14572595 -0.022161437 -0.0153405825 0.007919134 0.027449835 0.018900134 0.032096144 -0.0133295
-0.004844727 0.0099291215 0.007995384 0.024621245 -0.024519356 -0.047653787 0.009919675 -0.0143722715
0.0068151914 -0.0043608514 -0.006254814 -0.0044897255 0.027330695 -0.040011913 -0.01917738 0.0041415063
0.02784047 -0.0064277714 -0.018148813 -0.004865767 -0.018866332 -0.019102734 -0.016686523 0.046871282
0.02693811 -0.0017002977 0.016551008 0.008977735 0.0055998648 0.007282112 0.005001271 0.03053173
0.009435645 -0.029231 0.008349448 0.022987006 -0.00674982 0.00673998 -0.020154575 -0.04282493
0.000975811 -0.026607655 -2.233687e-05 -0.025720583 0.064219475 -0.03164276 -0.006856654 0.020069275
0.00442843 0.032656703 0.03669112 0.0077199438 -0.004282269 -0.012706732 0.0026606035 0.004677328
0.01181547 -0.035019614 0.019708823 -0.018767288 0.029642286 -0.028203731 -0.020014644 -0.033107925
-0.016560659 -0.0036013199 -0.0055808285 0.009273255 -0.050768625 0.0026924745 -0.01029148 0.023505934
0.0028584693 -0.037495784 0.019439442 0.006491989 0.039694607 0.024607483 0.015538598 -0.03008102
-0.039743304 -0.008377862 -0.0017023464 -0.018774003 0.0072492776 0.0007904379 -0.0027370553 -0.00024444665
0.0070423856 -0.030290041 -0.035730112 0.033557784 -0.0045626736 -0.043405857 -0.0019528151 -0.01457524
0.005209675 0.0060983 0.0056739533 -0.001000037 -0.036304228 -0.030894445 -0.037152763 -0.008083333
-0.034092043 0.0004263641 0.024628721 0.021052325 0.036538016 -0.0023605865 0.0014947912 0.00907038
-0.0055817976 0.024557006 0.0064883353 0.04219175 -0.035644885 -0.003174604 0.04582326 0.0062631685
00000000: 9685 bebc d736 84bb a524 813c aa2a be3c
00000010: 7169 bc3b 4b3d 143d 049d bbbc 86ab 7fbc
00000020: aabd 46bc 97e5 1b3c 6183 d13c fa1a cabc
00000030: e5bd 50bd 18c8 a5b9 f44c 85bc a91a 9abc
00000040: 241d 57bc cbb7 dbbb 8fa3 49bb d08c dd3c
00000050: 297e 12bd 1c38 75bc 225a ee3b 5e02 6abb
00000060: 2529 813c 6518 a2ba 0879 9ebb cdd7 b1bc
00000070: d8cc ccbc 2b3c 86bc 6b4c 313d f6c8 5c3c
00000080: d63a 45bb ae35 893c a4bd bebb 8cc7 053c
00000090: 2e92 18bc dd21 2d3c 5463 893c 1439 85b9
000000a0: 9a10 08bd 2792 10bc 3057 503d ca76 b8bb
000000b0: fc7e 933c fa38 b9bc 6d33 3abd 6ebe 13bc
000000c0: bf46 c4bc f8c9 76bc b3ba f1bc 39dc d73c
000000d0: d519 a3bc fcbb 443b b23d ab3c 80b8 c6bb
000000e0: fdf6 253d 17ec 123d f644 a03a 50c7 e4bc
000000f0: a2f7 00bc 8525 873b 4554 1a3a 8cab f7bb
00000100: 2829 d43a e2a2 0f3d 9f69 eebc b0aa 003c
00000110: efa0 d9bb abc5 67bc eaeb 0cb9 4080 923c
00000120: 4b25 4dbc f149 7f3c a1ff 0cbb 540a 63bd
00000130: b5cc 03bc da00 d0bc 56a9 f23c 68b2 e23b
00000140: 9aa4 1bbd 006b a7bc c980 11bc 9b53 1d3d
00000150: dcb5 0dbb 6dae 843c 2d0e 4cbc 57aa 4ebd
00000160: 930a 363c 72e7 a13b 0e82 56bc 78bb 28bd
00000170: 5488 7fba 9442 5dbc 7f5e f33b b653 b73b
00000180: 5767 f4bc 68b6 32bd 5002 2f3d e6b8 e8bb
00000190: 25a2 34bd 399f 9f3a 5eb5 24bc 566e b4bb
000001a0: 5b7a 3fbc 6ebc f03c c333 dcbb 46f1 c1bc
000001b0: 8d23 09bd 2d3f 39bd bc6c 5a3c b3d6 27bd
000001c0: 9cf5 d9bb c991 103d ee29 f63c ae8d 003d
000001d0: 0130 3cbc 9171 17bc 3395 363c 6b3a b2bc
000001e0: c077 3f3d 512b 973c 9a10 923c 7a91 6939
000001f0: 8bb1 0d3a 9286 443d 15ce 2e3b 4d88 81bc
00000200: 2f39 15be e78b b5bc 1157 7bbc 41bf 013c
00000210: 7ade e03c 74d4 9a3c 3f77 033d fa63 5abc
00000220: 84c0 9ebb c1ad 223c 12ff 023c 7eb2 c93c
00000230: d1dc c8bc 9e30 43bd 2286 223c ad79 6bbc
00000240: f851 df3b 79e5 8ebb 2ff5 ccbb 8c1e 93bb
00000250: 9fe4 df3c 88e3 23bd e119 9dbc 79b5 873b
00000260: b311 e43c 0ea0 d2bb d2ac 94bc 0371 9fbb
00000270: 918d 9abc 567d 9cbc 2db2 88bc 1afc 3f3d
00000280: 50ad dc3c 86dc deba fb95 873c 5a17 133c
00000290: 127f b73b c89e ee3b b4e1 a33b ae1d fa3c
000002a0: f797 1a3c da75 efbc 20cc 083c 3f4f bc3c
000002b0: 982d ddbb 0ddb dc3b 351b a5bc 3269 2fbd
000002c0: 91cd 7f3a 4cf8 d9bc 1060 bbb7 f9b3 d2bc
000002d0: 8085 833d d79b 01bd c8ad e0bb 5268 a43c
000002e0: 5d1c 913b 09c3 053d 6e49 163d 95f7 fc3b
000002f0: 4752 8cbb e62f 50bc 855d 2e3b 4544 993b
00000300: ac95 413c ba70 0fbd 6674 a13c dbbd 99bc
00000310: 61d4 f23c 830b e7bc c0f5 a3bc 2d9c 07bd
00000320: 38aa 87bc 1f04 6cbb 62df b6bb daee 173c
00000330: c3f2 4fbd 3a74 303b 999d 28bc 848f c03c
00000340: 2855 3b3b 2e95 19bd 773f 9f3c c0ba d43b
00000350: d096 223d a295 c93c 9b95 7e3c 796c f6bc
00000360: e0c9 22bd 4d43 09bc 4421 dfba f0cb 99bc
00000370: 598b ed3b 6435 4f3a 2b60 33bb 1329 80b9
00000380: d0c3 e63b d222 f8bc bd59 12bd e373 093d
00000390: 7b82 95bb 57ca 31bd 9af5 ffba fdcc 6ebc
000003a0: ecb5 aa3b 40d4 c73b 92ec b93b ac13 83ba
000003b0: beb3 14bd 5916 fdbc 7f2d 18bd f56f 04bc
000003c0: 19a4 0bbd 9f89 df39 2cc2 c93c ed75 ac3c
000003d0: e3a8 153d 12b4 1abb dfec c33a ee9b 143c
000003e0: 83e7 b6bb c62b c93c 1a9c d43b 42d1 2c3d
000003f0: 5f00 12bd 040d 50bb 2cb1 3b3d 443b cd3b

odeblock.odefunc.attention.0.bias f4 [64]
0.07663634 0.02500435 -0.07759515 0.034124203 -0.11456041 0.040954858 0.07483175 0.0021921243
-0.025278123 0.005568515 -0.012969877 0.07554505 -0.055605795 0.08155827 0.083199665 0.055859417
0.01294042 -0.044723105 -0.050052036 0.030056765 -0.082441136 0.0962356 0.03352037 -0.11291622
0.07602896 -0.004346983 0.048425555 -0.03447429 0.028559675 -0.07261239 0.065164074 -0.099700116
-0.11221601 0.040336292 0.12045789 0.060743835 0.06291672 -0.018592164 0.0837514 0.10991385
0.08363482 -0.0008173043 0.04828432 0.09517526 -0.018222213 -0.061514538 0.08902412 -0.049980953
0.0010918711 -0.06044317 -0.054570783 0.0005741705 -0.0839657 -0.03739988 0.109226815 -0.022857632
0.05774393 -0.1065346 0.11509557 -0.06304766 0.05185335 -0.010267009 0.026965512 0.059874557
00000000: 83f3 9c3d ecd5 cc3c 35ea 9ebd d2c5 0b3d
00000010: a69e eabd 48c0 273d 6341 993d bea9 0f3b
00000020: 1114 cfbc 1778 b63b 9b7f 54bc 5db7 9a3d
00000030: e7c2 63bd 0608 a73d 9664 aa3d d8cc 643d
00000040: 0e04 543c 932f 37bd 5d03 4dbd 9b39 f63c
00000050: e6d6 a8bd 2c17 c53d a84c 093d 9f40 e7bd
00000060: 12b5 9b3d 2371 8ebb e059 463d ea34 0dbd
00000070: fbf5 e93c ceb5 94bd be74 853d 932f ccbd
00000080: 82d1 e5bd ab37 253d a0b2 f63d 87ce 783d
00000090: 7bda 803d 984e 98bc db85 ab3d 831a e13d
000000a0: bc48 ab3d 5d40 56ba c7c5 453d 3feb c23d
000000b0: c046 95bc abf6 7bbd 4752 b63d d4b8 4cbd
000000c0: 1d1d 8f3a 4293 77bd 9d85 5fbd ee83 163a
000000d0: 35f6 abbd 9e30 19bd 4fb2 df3d ee3f bbbc
000000e0: e684 6c3d d02e dabd 3ab7 eb3d 221f 81bd
000000f0: 2e64 543d f536 28bc c7e6 dc3c 063f 753d

odeblock.odefunc.attention.2.weight f4 [1, 64]
-0.13026093 -0.115022235 0.09983608 -0.15759651 0.14974247 -0.07030482 -0.22469342 -0.114689685
0.071994886 -0.07668539 0.12616923 -0.109878294 0.077392325 -0.11108584 -0.1139065 -0.14960729
-0.19644476 0.14941065 0.102967724 -0.103161894 0.12948062 -0.2153821 -0.14665186 0.2139869
-0.15035376 0.15289527 -0.20238021 0.101138994 -0.17585279 0.13590385 -0.17729887 0.16674739
0.18478057 -0.14274287 -0.20692553 -0.1736391 -0.15628137 0.12166083 -0.018673535 -0.19019888
-0.2041319 -0.15673839 -0.19013156 -0.1203716 0.00033556897 0.08395405 -0.19396679 0.03974324
0.029399961 0.11830964 0.07996019 -0.19017904 0.19385578 0.10677094 -0.14831688 -0.12430918
-0.17834018 0.1267205 -0.1732492 0.18470727 -0.09552531 0.043472625 -0.096953824 -0.15799807
00000000: 1f63 05be c790 ebbd dc76 cc3d fb60 21be
00000010: 1756 193e f9fb 8fbd 0816 66be 6de2 eabd
00000020: 0e72 933d 3b0d 9dbd 8232 013e df07 e1bd
00000030: de7f 9e3d f980 e3bd d047 e9bd a732 19be
00000040: d128 49be 1bff 183e bee0 d23d 8b46 d3bd
00000050: 9196 043e 208d 5cbe e82b 16be 621f 5b3e
00000060: 56f6 19be 9490 1c3e c23c 4fbe f621 cf3d
00000070: c112 34be 612a 0b3e d68d 35be d4bf 2a3e
00000080: 1e37 3d3e 302b 12be 49e4 53be 73ce 31be
00000090: 3908 20be 5029 f93d 3ef9 98bc 7fc3 42be
000000a0: f407 51be 0780 20be d9b1 42be 6385 f6bd
000000b0: 4eef af39 1af0 ab3d 3b9f 46be cfc9 223d
000000c0: 30d8 f03c 534c f23d 2bc2 a33d 4bbe 42be
000000d0: 2182 463e b9aa da3d 61e0 17be d095 febd
000000e0: cf9e 36be 05c3 013e 3d68 31be e723 3d3e
000000f0: c6a2 c3bd 5a10 323d ba8f c6bd 3fca 21be

predictor.0.weight f4 [64, 128]
0.028024713 0.028229777 0.01526386 -0.012911169 -0.05635185 -0.010607466 -0.08241955 -0.057101067
0.0072026234 -0.0016858677 0.0630472 -0.09142378 0.047206618 -0.037360158 -0.058709554 0.0041990634
0.03334239 0.035495482 -0.025772793 -0.05248091 -0.062852815 0.11091528 -0.03339328 -0.06275693
-0.011130595 -0.05456361 0.05730557 0.009576647 0.019905444 -0.087924495 0.064846665 0.043510064
-0.07342092 0.1032152 -0.06324617 0.034427613 0.025673952 0.03471561 0.00016632432 -0.050607342
-0.05968496 -0.009330383 -0.03161635 -0.021140695 -0.027595177 0.033594817 0.054824628 0.023288824
-0.06846531 -0.05804784 -0.060287673 0.045464236 -0.023586037 -0.04022571 -0.02222643 -0.011027968
0.05179479 0.04950969 -0.06249301 0.033977155 0.047081497 -0.06908803 -0.004071266 -0.031598266
-0.06939384 0.006919605 0.038127232 -0.05777611 0.104603015 -0.025328131 -0.05591246 -0.09031087
0.060200907 -0.011376205 0.057125065 0.0015429007 0.051618185 0.022866277 -0.027845277 -0.00250332
-0.043025445 -0.030981231 -0.009198055 -0.067917705 0.05802029 -0.036977496 0.044592325 -0.058706757
-0.062042594 -0.010371149 0.007164541 -0.073454864 -0.09181364 -0.054677445 -0.032951362 -0.039135795
-0.074258685 -0.052574407 0.022006901 0.0577612 0.014893279 0.027194876 -0.09437366 -0.006715119
0.040780056 0.04778324 -0.015157335 0.004176071 0.05322176 -0.053330004 -0.08741006 0.06478168
0.01408124 -0.028994251 0.012085624 -0.015458231 0.11974882 0.06897685 -0.0059767156 0.010441224
-0.050303217 -0.08390375 0.020443307 0.007569564 0.04474973 0.045393534 0.022559375 0.015474853
-0.050394613 -0.009175073 -0.054268703 0.0012307666 -0.10387206 -0.060692903 0.044023875 0.08733461
0.07252816 -0.02668593 -0.049613588 0.08931065 0.020162128 -0.021197433 0.110217705 0.008022336
-0.0021807519 -0.029221497 -0.10395485 -0.078622095 0.018751882 0.066273816 0.03671718 -0.040141355
-0.04619773 0.028492296 0.0020733657 0.014564133 -0.0029820625 0.07859481 -0.060679514 -0.04171758
-0.008128924 -0.016449753 -0.025200905 -0.03777733 -0.05020578 0.0481376 -0.06070869 -0.019189551
0.019008987 0.08570344 0.04296036 0.016108878 0.054017417 0.008523463 -0.076865196 -0.060094576
0.057715196 0.047609027 0.0418334 -0.03417368 0.012399716 -0.047426265 -0.039583832 0.09208388
0.025001097 -0.03758647 0.06400904 0.048490833 0.025065476 0.023036156 -0.05956416 0.04916747
0.05395841 -0.042228322 0.03465833 -0.01132242 -0.048175663 -0.05404752 -0.025878485 0.0600177
-0.042916764 -0.034665566 0.014392205 -0.0127146 0.08266428 -0.09801656 0.046022374 0.02881999
-0.007291089 -0.016223053 0.00076317415 0.09613203 -0.02248235 0.07308324 0.0039440035 0.012663148
0.012050279 0.043390553 0.040509105 0.09259668 -0.05476601 -0.11640892 0.027318493 -0.11623413
-0.017621627 -0.053218354 -0.051513407 0.026986863 0.003268276 -0.01772268 0.0063898456 -0.03615796
0.07655579 -0.0013245796 -0.010431579 0.05421352 0.005308644 -0.0043900395 -0.051586896 0.03275791
0.059894253 -0.0026926755 0.039456476 -0.01988578 0.04712605 0.021496538 0.05851468 -0.11469705
0.063983954 0.027869137 0.0054438934 0.10841435 0.031445194 0.028116617 -0.017234098 -0.058513876
00000000: 1594 e53c 2242 e73c 4515 7a3c 5e89 53bc
00000010: 33d1 66bd f0ca 2dbc 95cb a8bd cfe2 69bd
00000020: fc03 ec3b 55f8 dcba e41e 813d 643c bbbd
00000030: ba5b 413d f706 19bd 6e79 70bd 4c98 893b
00000040: 0892 083d b663 113d 7721 d3bc 39f6 56bd
00000050: fab8 80bd 8d27 e33d 64c7 08bd b586 80bd
00000060: 195d 36bc 187e 5fbd 3fb9 6a3d 5ee7 1c3c
00000070: be10 a33c c211 b4bd 54ce 843d 9c37 323d
00000080: b55d 96bd 7e62 d33d 3587 81bd f803 0d3d
00000090: 2e52 d23c f531 0e3d 5867 2e39 a549 4fbd
000000a0: 3778 74bd 76de 18bc 2580 01bd 402f adbc
000000b0: 480f e2bc b89a 093d ca8f 603d 34c8 be3c
000000c0: 8a37 8cbd 92c3 6dbd 35f0 76bd b538 3a3d
000000d0: 8137 c1bc b7c3 24bd 3414 b6bc a6ae 34bc
000000e0: c626 543d acca 4a3d acf8 7fbd a12b 0b3d
000000f0: 87d8 403d 067e 8dbd 4168 85bb 2f6d 01bd
00000100: 5c1e 8ebd dbbd e23b 4d2b 1c3d a4a6 6cbd
00000110: 1b3a d63d f17c cfbc 7704 65bd e8f4 b8bd
00000120: 3a95 763d 4363 3abc f9fb 693d 283b ca3a
00000130: 976d 533d 0f52 bb3c c71b e4bc be0e 24bb
00000140: 733b 30bd 5acc fdbc 70b3 16bc 7018 8bbd
00000150: afa6 6d3d b775 17bd 71a6 363d 7f76 70bd
00000160: 6020 7ebd c0eb 29bc 87c4 ea3b 816f 96bd
00000170: ca08 bcbd 75f5 5fbd 02f8 06bd db4c 20bd
00000180: f014 98bd 4358 57bd d147 b43c 0297 6c3d
00000190: f102 743c cac7 de3c fa46 c1bd 800a dcbb
000001a0: fd08 273d 5cb8 433d 7956 78bc 6cd7 883b
000001b0: 0fff 593d 9070 5abd 0c04 b3bd 42ac 843d
000001c0: 00b5 663c 5a85 edbc c802 463c 8544 7dbc
000001d0: df3e f53d bc43 8d3d 53d8 c3bb ab11 2b3c
000001e0: bf0a 4ebd bbd5 abbd b978 a73c 1b0a f83b
000001f0: 7e4b 373d 92ee 393d 70ce b83c 3d8a 7d3c
00000200: 956a 4ebd 0c53 16bc dc48 5ebd ad51 a13a
00000210: e0ba d4bd 1f99 78bd 6152 343d 7ddc b23d
00000220: a589 943d 749c dabc 9e37 4bbd 81e8 b63d
00000230: 0c2b a53c 3da6 adbc d2b9 e13d 1e70 033c
00000240: f2ea 0ebb ec61 efbc 48e6 d4bd 9f04 a1bd
00000250: 8c9d 993c 91ba 873d c164 163d 436b 24bd
00000260: d539 3dbd ad68 e93c 4ee1 073b 679e 6e3c
00000270: b56e 43bb 51f6 a03d 158b 78bd 0ee0 2abd
00000280: 2e2f 05bc a2c1 86bc 2172 cebc 67bc 1abd
00000290: 93a4 4dbd ef2b 453d ada9 78bd 6833 9dbc
000002a0: bcb8 9b3c 4985 af3d 34f7 2f3d c4f6 833c
000002b0: 5e41 5d3d ffa5 0b3c 806b 9dbd bb25 76bd
000002c0: c566 6c3d af01 433d 8059 2b3d b3f9 0bbd
000002d0: 2e28 4b3c 0b42 42bd a822 22bd 7996 bc3d
000002e0: 1acf cc3c 45f4 19bd 2c17 833d 539e 463d
000002f0: 1d56 cd3c 52b6 bc3c 8cf9 73bd d463 493d
00000300: 7e03 5d3d 9bf7 2cbd e5f5 0d3d ac81 39bc
00000310: d853 45bd ef60 5dbd 1eff d3bc 1fd5 753d
00000320: 7dc9 2fbd 7bfd 0dbd 48cd 6b3c e650 50bc
00000330: e44b a93d e8bc c8bd f581 3c3d e617 ec3c
00000340: 16ea eebb 35e6 84bc c00f 483a dfe0 c43d
00000350: e82c b8bc aaac 953d b33c 813b 1879 4f3c
00000360: 896e 453c 4bba 313d e0ec 253d 54a3 bd3d
00000370: 5352 60bd cd67 eebd 08cb df3c 290c eebd
00000380: 3b5b 90bc 7dfb 59bd b9ff 52bd 8e13 dd3c
00000390: 9330 563b 272f 91bc e961 d13b 5e1a 14bd
000003a0: 48c9 9c3d 849d adba 37e9 2abc ff0e 5e3d
000003b0: 22f4 ad3b 52da 8fbb c84c 53bd 292d 063d
000003c0: ad53 753d 9977 30bb 1d9d 213d 81e7 a2bc
000003d0: 3f07 413d 8219 b03c 17ad 6f3d 49e6 eabd
000003e0: 050a 833d d14d e43c b062 b23b 5808 de3d
000003f0: adcc 003d d254 e63c 862e 8dbc 3fac 6fbd

predictor.0.bias f4 [64]
-0.009122123 -0.0030714737 -0.0011316636 -0.009926537 -0.0006749187 -0.00048370918 5.4038403e-05 8.4323285e-05
-0.011550195 -1.35467435e-05 -0.00106567 -0.00057945494 -0.00025178085 -0.0061405147 -0.00020937755 -5.4271222e-05
5.873002e-05 -0.0086256545 -7.46728e-05 0.00030355057 -0.0024912595 0.0064636874 0.0001229018 0.0004508233
0.0016611447 0.00033717256 -2.0775983e-06 -0.00036064564 -0.00014369455 -0.00041200384 4.116272e-05 -0.0010989927
0.0010646379 -0.0004072117 3.1337204e-05 -0.0064330837 -0.0005062934 0.00079007924 6.429218e-05 0.013404266
0.0008625549 0.004156983 -0.0003915987 0.001012411 0.0010389788 4.496276e-05 -6.4727195e-05 -0.0010697285
0.00012502159 0.00015915814 9.988722e-06 0.0002108962 -1.5768455e-07 0.0040427563 -0.009123041 0.00012598277
-2.6199185e-05 0.0024984817 0.001138501 0.00046680335 0.00085291424 0.00030340772 -1.729251e-05 1.717634e-05
00000000: f574 15bc c74a 49bb 5454 94ba eaa2 22bc
00000010: 07ed 30ba 599a fdb9 4ba7 6238 b8d6 b038
00000020: 073d 3dbc d246 63b7 f4ad 8bba 90e6 17ba
00000030: 7401 84b9 5f36 c9bb 5c8c 5bb9 48a1 63b8
00000040: e154 7638 9e52 0dbc a799 9cb8 de25 9f39
00000050: 6644 23bb 57cd d33b 33df 0039 7b5c ec39
00000060: c4ba d93a 89c6 b039 de6c 0bb6 0a15 bdb9
00000070: b6ac 16b9 3802 d8b9 22a6 2c38 130c 90ba
00000080: 528b 8b3a 077f d5b9 1170 0338 9ecc d2bb
00000090: c6b8 04ba 521d 4f3a 9ad4 8638 919d 5b3c
000000a0: 141d 623a 4d37 883b 7d4f cdb9 e0b2 843a
000000b0: 582e 883a 6596 3c38 26be 87b8 2236 8cba
000000c0: 3a18 0339 b0e3 2639 3c95 2737 0524 5d39
000000d0: 0050 29b4 1979 843b cf78 15bc 3e1a 0439
000000e0: 52c6 dbb7 91bd 233b c139 953a 49bd f439
000000f0: 1b96 5f3a b212 9f39 620f 91b7 e915 9037

predictor.1.weight f4 [64]
0.9429805 0.96044004 0.95168924 0.9351209 0.92327064 0.9413484 0.9670922 1.0279932
0.9960427 0.9480284 0.9580702 0.930552 0.9961811 0.9856742 1.0187112 0.9799642
1.0004398 1.0261447 0.9785754 0.9706805 0.9667655 0.9327541 0.99097866 0.9344864
0.9889012 1.0160145 0.9275664 0.97851294 0.99625176 1.0074867 0.964667 0.9813603
0.9848844 0.92585725 1.0072635 0.9485302 0.956454 1.0280851 0.99923617 0.9264109
1.0147257 0.980892 0.9634445 0.9918579 1.0105922 1.0399253 0.99926186 1.0113567
0.97749054 0.9468245 0.983071 0.9830081 0.98217344 0.9969724 0.9591241 0.96471584
1.0073472 0.9398951 0.918394 1.0062928 0.9233702 0.9803301 0.99583423 0.950985
00000000: 2c67 713f 66df 753f e8a1 733f 1564 6f3f
00000010: 775b 6c3f 35fc 703f 5b93 773f 4895 833f
00000020: a8fc 7e3f fdb1 723f 1744 753f a838 6e3f
00000030: b905 7f3f 2555 7c3f 2165 823f efde 7a3f
00000040: 690e 803f b658 833f eb83 7a3f 847e 783f
00000050: f27d 773f f9c8 6e3f c7b0 7d3f 803a 6f3f
00000060: a128 7d3f c30c 823f fe74 6d3f d37f 7a3f
00000070: 5b0a 7f3f 53f5 803f 6bf4 763f 6e3a 7b3f
00000080: 6221 7c3f fb04 6d3f 03ee 803f e0d2 723f
00000090: 2bda 743f 4b98 833f f1cd 7f3f 4429 6d3f
000000a0: 88e2 813f bd1b 7b3f 4ca4 763f 66ea 7d3f
000000b0: 165b 813f 461c 853f a0cf 7f3f 2374 813f
000000c0: d23c 7a3f 1763 723f 8baa 7b3f 6ba6 7b3f
000000d0: b86f 7b3f 9539 7f3f 2889 753f 9ef7 763f
000000e0: c1f0 803f f79c 703f df1b 6b3f 34ce 803f
000000f0: fd61 6c3f eaf6 7a3f feee 7e3f c173 733f

predictor.1.bias f4 [64]
-0.006012999 -0.016582524 -0.009851989 -0.035281636 -0.03952137 -0.03119909 0.00968832 0.0068247216
0.013542249 -0.011185875 -0.004651359 -0.03587858 0.02280604 0.0051754336 0.018434387 0.019235311
-0.008610449 0.006829838 -0.011573043 0.01269615 -0.017640961 0.024302438 0.010299729 -0.0041566864
0.019215709 -0.0037771375 -0.01995952 0.005783888 0.013228967 0.0022531524 -0.0069827377 0.006293551
-0.003570115 -0.021409778 0.011243295 -0.017489212 -0.022659635 0.016057609 0.018844852 -0.009750929
0.016238775 -0.013185233 -0.0061351326 0.0027133944 0.024584241 0.012511743 0.018922325 0.01764646
-0.0052345386 -0.027072629 0.0050991694 0.010568448 -0.0011824262 0.016303102 -0.016083391 -0.011883318
0.011195734 -0.037562862 -0.009215628 0.024143506 -0.037904747 0.017264357 0.0076094056 -0.0078515345
00000000: b108 c5bb 13d8 87bc 3d6a 21bc 7a83 10bd
00000010: 29e1 21bd 3c95 ffbc c2bb 1e3c eaa1 df3b
00000020: 4fe0 5d3c f644 37bc 6d6a 98bb 6bf5 12bd
00000030: bbd3 ba3c af96 a93b b603 973c 5f93 9d3c
00000040: d712 0dbc d5cc df3b dc9c 3dbc 8303 503c
00000050: c783 90bc e815 c73c 32c0 283c d034 88bb
00000060: 436a 9d3c da89 77bb 2682 a3bc c586 bd3b
00000070: 4fbe 583c a0a9 133b 73cf e4bb 223a ce3b
00000080: 97f8 69bb 8f63 afbc cc35 383c 8945 8fbc
00000090: b3a0 b9bc 3f8b 833c 8560 9a3c 5cc2 1fbc
000000a0: 2e07 853c e006 58bc 3909 c9bb 34d3 313b
000000b0: e464 c93c 0efe 4c3c fe02 9b3c 4f8f 903c
000000c0: 7e86 abbb 6bc7 ddbc ef16 a73b 4927 2d3c
000000d0: a4fb 9aba 158e 853c 51c1 83bc 40b2 42bc
000000e0: 506e 373c 84db 19bd 25fd 16bc 9ac8 c53c
000000f0: 0242 1bbd fb6d 8d3c 5258 f93b b9a3 00bc

predictor.1.running_mean f4 [64]
0.18279785 -0.19037306 0.106288865 -0.020009354 0.06622238 -0.15191713 0.07773632 -0.097783916
0.050624274 -0.09355898 -0.03171855 -0.09393969 0.17851944 0.1465142 -0.044699796 0.15981129
-0.10959039 0.1155144 0.1392892 0.09865945 0.021344716 -0.013155753 0.1761783 0.05975086
0.07425265 0.14793126 0.03344377 0.004094655 0.14421618 0.11878625 -0.0126171615 0.225328
0.036780205 0.050987426 0.040237665 -0.0952502 -0.10880238 0.05230807 0.1678057 -0.054434136
0.17673981 0.04196932 -0.055863667 -0.058400743 0.16270542 0.11252586 0.08616711 0.23299846
-0.089750715 -0.027132906 -0.13562822 0.044277392 0.1656492 0.20559414 0.12944466 -0.020493163
-0.00067705713 0.021270905 0.085612535 0.18253458 0.08246609 0.100521296 0.18375567 0.121442474
00000000: 5c2f 3b3e 28f1 42be faad d93d a8ea a3bc
00000010: 999f 873d 2a90 1bbe 3834 9f3d ef42 c8bd
00000020: 665b 4f3d da9b bfbd 4feb 01bd 7463 c0bd
00000030: cdcd 363e d207 163e 2217 37bd 92a5 233e
00000040: ed70 e0bd d092 ec3d d4a1 0e3e f70d ca3d
00000050: 1ddb ae3c 3a8b 57bc 1668 343e 51bd 743d
00000060: c611 983d 4b7b 173e 56fc 083d 752c 863b
00000070: 68ad 133e 3546 f33d 36b8 4ebc 62bc 663e
00000080: d7a6 163d 31d8 503d 40d0 243d 8912 c3bd
00000090: c8d3 debd fd40 563d 42d5 2b3e 54f6 5ebd
000000a0: 48fb 343e 06e8 2b3d 4dd1 64bd 9e35 6fbd
000000b0: 409c 263e f573 e63d 6278 b03d 2697 6e3e
000000c0: 39cf b7bd d445 debc 20e2 0abe 365c 353d
000000d0: f29f 293e 4587 523e 248d 043e 47e1 a7bc
000000e0: 897c 31ba 5240 ae3c a055 af3d 58ea 3a3e
000000f0: fbe3 a83d 1cde cd3d 722a 3c3e d5b6 f83d

predictor.1.running_var f4 [64]
0.0018528814 0.001343771 0.0014217197 0.0015817326 0.0013806216 0.002354691 0.0020154978 0.0010310824
0.0013330994 0.0018808019 0.0011444886 0.0014958739 0.0018027431 0.0017498734 0.0010165418 0.0023942895
0.0012497107 0.0015256847 0.0013128568 0.0012299129 0.0014852798 0.001236845 0.002272267 0.0013758735
0.0017351287 0.0013082931 0.0011988134 0.0011386321 0.0019498097 0.0017752586 0.0013945302 0.0019060805
0.0017302879 0.001764528 0.0018852671 0.0022718492 0.0023143769 0.0013303517 0.00214202 0.0018938087
0.0022738238 0.0012372991 0.0018430066 0.001395592 0.002489664 0.001214798 0.0015099635 0.0016060895
0.0014239469 0.0014002022 0.0014236639 0.001406396 0.0022003148 0.0015702 0.0013295682 0.0014331781
0.0009900738 0.00120008 0.0011884384 0.0017179213 0.0012750587 0.0026983442 0.0023103952 0.0020177392
00000000: 62dc f23a 7921 b03a ff58 ba3a 2452 cf3a
00000010: f9f5 b43a 2951 1a3b 7116 043b 6225 873a
00000020: 65bb ae3a 3d85 f63a aa02 963a 3311 c43a
00000030: 054a ec3a 025c e53a 7c3d 853a 83e9 1c3b
00000040: 55cd a33a 7cf9 c73a 2a14 ac3a 0735 a13a
00000050: b8ad c23a a21d a23a 50ea 143b a756 b43a
00000060: 426d e33a 087b ab3a 8121 9d3a 273e 953a
00000070: c290 ff3a cbaf e83a abc8 b63a 73d5 f93a
00000080: d4ca e23a bc47 e73a 111b f73a 4ee3 143b
00000090: cdac 173b 325f ae3a 2261 0c3b ad39 f83a
000000a0: 6f04 153b de2c a23a 0a91 f13a 4cec b63a
000000b0: a129 233b db39 9f3a f8e9 c53a 6c83 d23a
000000c0: bba3 ba3a fd86 b73a 3c9a ba3a d256 b83a
000000d0: 2833 103b 2bcf cd3a e844 ae3a 7ad9 bb3a
000000e0: 5dc5 813a 014c 9d3a 60c5 9b3a e02b e13a
000000f0: df1f a73a b4d6 303b 006a 173b 0c3c 043b

predictor.4.weight f4 [32, 64]
-0.0016154773 -0.12098136 -0.0058878567 0.037212905 -0.08858924 -0.11897356 -0.07651407 0.05632108
0.038324337 0.102614686 0.06321027 -0.013425838 0.022559492 0.06758448 -0.04540822 -0.097190544
-0.11208672 -0.006652783 -0.12829679 -0.14022754 -0.064218275 -0.051230248 -0.123375826 0.100681044
0.0426651 0.019760048 0.0013248251 -0.07223352 0.027216233 -0.00021454439 -0.06774266 -0.0051031257
0.07090796 -0.13106999 0.0029321625 -0.053062886 -0.044509783 -0.038368385 -0.002815935 0.05788085
-0.03725368 -0.069827706 0.10877933 0.11361565 0.09263449 -0.043955125 -0.11289513 -0.022563826
0.10757606 -0.070639655 0.0997823 0.012962622 0.08832614 0.0068395673 0.010357114 0.08600308
-0.05917544 0.051970653 -0.013622986 -0.051132653 -0.044566337 0.09577496 0.053672824 -0.052156437
0.022725828 -0.016961707 -0.02693154 -0.07170685 0.03125669 -0.04918418 0.066274315 -0.053964056
0.06337869 0.06651004 0.02800319 -0.07032233 0.07588269 -0.024195312 0.052552737 0.04577004
0.015417152 0.16166344 0.01204062 -0.027223384 -0.0005190143 -0.01626638 -0.01713843 0.0484674
0.11142376 0.045145456 -0.0013948374 0.068576746 0.01643127 0.078301296 0.04964507 0.14012745
-0.012236982 0.041338775 -0.03988648 -0.10131798 -0.07838706 0.14592981 0.09360911 0.04321803
-0.0019142374 -0.049422532 -0.110330984 -0.051349197 0.15584189 0.1485301 0.10163039 0.12205733
0.005075737 0.012583973 -0.04046624 0.04841811 -0.039284956 0.14395963 0.119958155 -0.12996656
0.0056986352 0.12787609 -0.058554493 0.12702364 0.05480153 0.13096875 0.12623322 0.04540905
0.07959759 -0.047037885 0.128417 -0.048692998 -0.0036264297 0.026535545 0.082414374 0.050537996
0.16561307 -0.10030478 -0.04946244 -0.11950748 0.0902243 0.13597289 0.07852322 0.10295295
-0.026026959 0.15289839 0.071302384 0.014063287 0.041137435 0.016336178 0.05895706 0.08481117
0.115251005 0.060556535 0.0055724173 0.0035577558 0.1543989 0.09935291 -0.086587295 -0.07172343
0.07952887 0.0041533588 0.12570198 0.030273985 -0.058333892 0.11100871 0.15466471 -0.029184232
0.1305866 -0.09081254 0.0139181735 0.035637986 0.034503743 0.09122022 0.016221052 0.14619198
-0.057372987 -0.013768086 0.03062244 -0.019853476 0.12338736 0.10425386 0.01072644 -0.09382103
0.15393513 -0.08709742 0.13074751 -0.0066426825 0.0057265107 0.14019836 0.02519398 0.06709994
-0.0487775 -0.05751597 0.09522659 -0.096767195 -0.02944478 -0.092172794 0.102724835 -0.061628267
-0.006423549 -0.010310879 0.056794167 -0.109492734 0.04029028 0.15572147 -0.008343438 0.069078706
-0.06184072 0.011315219 0.13829175 0.050411288 0.06806348 -0.06959896 0.14525315 0.07988402
-0.05034184 0.15811196 0.042453114 0.039257232 0.10792336 0.031210292 0.01274195 0.11028548
0.094555445 0.057750087 0.15832974 0.05836948 -0.09740769 0.12857533 -0.0056322287 -0.02008327
0.119165465 0.021538654 0.106057175 -0.090063885 0.019747918 0.048565246 0.10766338 0.09415822
0.06380801 -0.009916011 -0.016422922 0.020754656 0.038700968 0.07589773 0.064663835 -0.05570092
-0.016006717 -0.080649346 0.025363972 0.11987769 -0.0018006896 0.03669927 -0.063302815 0.07636621
00000000: 6cbe d3ba 13c5 f7bd ecee c0bb 8f6c 183d
00000010: 476e b5bd 69a8 f3bd 69b3 9cbd efb0 663d
00000020: fbf9 1c3d a627 d23d 6374 813d 0cf8 5bbc
00000030: afce b83c bb69 8a3d f8fd 39bd d60b c7bd
00000040: b98d e5bd 97ff d9bb 3c60 03be cf97 0fbe
00000050: df84 83bd cfd6 51bd 77ac fcbd dd31 ce3d
00000060: 9ac1 2e3d d3df a13c c1a5 ad3a 2bef 93bd
00000070: 94f4 de3c 52f7 60b9 aabc 8abd 1f38 a7bb
00000080: 3138 913d 3637 06be 8629 403b 7858 59bd
00000090: e44f 36bd 2b28 1dbd 8d8b 38bb 7814 6d3d
000000a0: 5197 18bd d401 8fbd b3c7 de3d 52af e83d
000000b0: 27b7 bd3d 4a0a 34bd 9035 e7bd c6d7 b8bc
000000c0: d650 dc3d 86ab 90bd aa5a cc3d 2d61 543c
000000d0: 56e4 b43d 731e e03b e2b0 293c 6222 b03d
000000e0: f261 72bd 2edf 543d f232 5fbc 7970 51bd
000000f0: 318b 36bd aa25 c43d 09d8 5b3d fda1 55bd
00000100: 842b ba3c 47f3 8abc 889f dcbc 0adb 92bd
00000110: 0407 003d 5a75 49bd d4ba 873d 6a09 5dbd
00000120: b0cc 813d 6a36 883d f266 e53c 2705 90bd
00000130: 6268 9b3d 3f35 c6bc 8a41 573d 5e79 3b3d
00000140: 3998 7c3c 1a8b 253e 0546 453c 9303 dfbc
00000150: 760e 08ba 1241 85bc e565 8cbc c185 463d
00000160: 2432 e43d 71ea 383d fad2 b6ba f771 8c3d
00000170: df9a 863c 6e5c a03d a158 4b3d 927d 0f3e
00000180: 9f7d 48bc d952 293d 0160 23bd cd7f cfbd
00000190: 6589 a0bd a06e 153e 22b6 bf3d 6405 313d
000001a0: 26e7 faba 486f 4abd 36f5 e1bd 8953 52bd
000001b0: 0495 1f3e 4618 183e 9823 d03d 32f9 f93d
000001c0: 5e52 a63b 022d 4e3c eebf 25bd 1152 463d
000001d0: 43e9 20bd 276a 133e 9fac f53d f415 05be
000001e0: 9ebb ba3b f3f1 023e d6d6 6fbd 7c12 023e
000001f0: 9277 603d ac1c 063e 4843 013e d7fe 393d
00000200: 1004 a33d ccaa 40bd bf7f 033e 4f72 47bd
00000210: 65a9 6dbb 1261 d93c dec8 a83d ee00 4f3d
00000220: 7996 293e 986c cdbd 2199 4abd 56c0 f4bd
00000230: 85c7 b83d 7a3c 0b3e c8d0 a03d ffd8 d23d
00000240: 7d36 d5bc 6591 1c3e fc06 923d b369 663c
00000250: ba7f 283d 73d3 853c f57c 713d 7bb1 ad3d
00000260: b808 ec3d 210a 783d d398 b63b 3d29 693b
00000270: bf1a 1e3e 8a79 cb3d ae54 b1bd bce3 92bd
00000280: 08e0 a23d e618 883b 05b8 003e 2601 f83c
00000290: 85ef 6ebd 8958 e33d 6d60 1e3e c513 efbc
000002a0: 7eb8 053e edfb b9bd 0d09 643c 23f9 113d
000002b0: cc53 0d3d abd1 ba3d 03e2 843c 5ab3 153e
000002c0: f0ff 6abd 8a93 61bc e9db fa3c c2a3 a2bc
000002d0: 83b2 fc3d 0c83 d53d f3bd 2f3c 3d25 c0bd
000002e0: 2ca1 1d3e 2260 b2bd ade2 053e dcaa d9bb
000002f0: 74a5 bb3b 2990 0f3e 9b63 ce3c b16b 893d
00000300: eaca 47bd de95 6bbd 2906 c33d e12d c6bd
00000310: 2e36 f1bc 17c5 bcbd 6661 d23d ec6d 7cbd
00000320: a27c d2bb f6ee 28bc 00a1 683d ba3d e0bd
00000330: 6c07 253d 7375 1f3e eab2 08bc 2379 8d3d
00000340: b24c 7dbd 7863 393c 5a9c 0d3e 117c 4e3d
00000350: de64 8b3d e689 8ebd 3ebd 143e 3c9a a33d
00000360: 3f33 4ebd 1ae8 213e 51e3 2d3d 31cc 203d
00000370: ec06 dd3d baac ff3c 9dc3 503c 5bdd e13d
00000380: 49a6 c13d 5b8b 6c3d 3121 223e d614 6f3d
00000390: af7d c7bd 40a9 033e 8f8e b8bb ab85 a4bc
000003a0: 060d f43d d571 b03c 8134 d93d 6a73 b8bd
000003b0: 63c6 a13c 5aec 463d 9e7e dc3d 06d6 c03d
000003c0: c6ad 823d c476 22bc 5d89 86bc ab05 aa3c
000003d0: e884 1e3d 4570 9b3d 796e 843d a626 64bd
000003e0: 8520 83bc 7c2b a5bd 1bc8 cf3c 6f82 f53d
000003f0: 1e05 ecba f951 163d e8a4 81bd e365 9c3d

predictor.4.bias f4 [32]
-0.012743845 -0.029049313 0.00060952554 -0.07404087 0.035770763 0.11286305 -0.0478048 0.004508865
0.09958242 0.05604261 0.118255176 0.09329532 0.13117757 -0.10055216 0.029156625 0.022514626
0.10650401 -0.09219199 0.027161926 -0.09071908 0.007068379 0.040430896 -0.07428844 0.13204262
-0.091109276 -0.030903151 0.10693577 -0.11287613 -0.12205265 0.06391286 0.095571384 -0.02908519
00000000: 8fcb 50bc d3f8 edbc 91c8 1f3a bda2 97bd
00000010: 5d84 123d be24 e73d f7ce 43bd 1abf 933b
00000020: def1 cb3d f08c 653d c52f f23d 9e11 bf3d
00000030: 6a53 063e 4aee cdbd e0d9 ee3c 9870 b83c
00000040: c61e da3d 27cf bcbd b082 de3c edca b9bd
00000050: dc9d e73b de9a 253d 8a24 98bd 2e36 073e
00000060: 8097 babd 9b28 fdbc 2401 db3d 9a2b e7bd
00000070: bdf6 f9bd bfe4 823d eeba c33d 1044 eebc

predictor.6.weight f4 [1, 32]
-0.058589224 0.21602404 0.1844281 0.11283627 -0.00036008822 -0.097611785 -0.04640949 0.033456493
-0.19450097 -0.10567521 -0.17543402 0.109407194 0.11390591 0.021005891 0.09730672 0.12323206
0.07185657 -0.13284597 0.048038997 -0.09197266 0.043346338 0.15951158 -0.062344648 -0.11052673
-0.06438104 0.085256174 -0.07764193 -0.022747878 -0.026394933 0.04523836 0.08898509 -0.05310019
00000000: 41fb 6fbd 6835 5d3e b8da 3c3e b416 e73d
00000010: 39ca bcb9 b0e8 c7bd e117 3ebd ad09 093d
00000020: 432b 47be 3f6c d8bd faa4 33be e110 e03d
00000030: 8047 e93d 8c14 ac3c bf48 c73d 1761 fc3d
00000040: 8a29 933d c608 08be 8ac4 443d 295c bcbd
00000050: ee8b 313d 0157 233e 1a5d 7fbd d75b e2bd
00000060: 35da 83bd ca9a ae3d bb02 9fbd c259 babc
00000070: 303a d8bc dc4b 393d d13d b63d 967f 59bd
